model/cls.onnx (onnx, 248477 bytes, 10 tensors)

features.0.weight f4 [6, 1, 5, 5]
00000000: d586 143e f07f fe3d 13ea 2bbe c3cb 33be
00000010: 27a8 5ebe 7cef ef3d f107 96bd 6b74 5abd
00000020: 477f 5ebe d44d 6dbe c1fb 823c 5302 0cbe
00000030: 82e6 acbe 9017 88be 7b7f 5fbe 979f 0e3e
00000040: a3f1 473d 403c 8a3d c598 33bd 9901 7e3d
00000050: a344 8b3e 5677 803e 5d04 0d3e cf00 c53e
00000060: 7612 9f3e 588a be3d 5d1b 413e 5765 8ebd
00000070: 0a7a 6fbd abb3 fbbd 71de 21be e2a8 8f3c
00000080: 96d2 60be a510 56be bd4d abbe af5c 77be
00000090: 82e3 84be 8188 a8bd 75af f5bd ffa5 a9bd
000000a0: 9f7f bbbd 55f0 8cbe f93f 2dbe edee 7bbe
000000b0: 1a31 dabd 130b 1fbe 1632 81bd 4900 8abb
000000c0: dd1f b83b 8f91 853e acdf 08be 2300 43be
000000d0: ca02 17be 56e8 523d c616 973e 14cc e5bd
000000e0: 33d8 69bc d257 dbbc cd77 183e e695 953e
000000f0: 888f 233e 27e4 073e e289 c83b 3904 6f3e
00000100: 42ef a53e 3d84 05bd dc75 473b f9bb a83d
00000110: f6be 8a3e cf1d 933e f57b b9be b734 4ebe
00000120: ea3d de3d e220 c03e 3c72 933e 9c13 6a3e
00000130: 6741 793e f7a8 bb3d 76db 013e dc96 9bbc
00000140: ba5c d1bd a275 4e3e e62f 963d 41eb b0be
00000150: ff19 26be 5ba3 d2bc 9489 61bd 994a 65be
00000160: f9bf 5bbe 922a 9ebe 5fe3 d73d c93e b43d
00000170: 3cda c93b 2ee1 3fbe d062 b2be 1768 a43d
00000180: 90c4 5a3e e137 563d 2831 83be fcbe 65be
00000190: 5a49 6a3e f5e9 763e 14e8 273e 2767 163e
000001a0: 54c9 14be cd76 2cbe a125 a9be dd21 98be
000001b0: 7cfb 45be c703 56be 576f a9be 4a3d 80be
000001c0: 6e6c c1be e7c3 c3bd 4d4f e8bd 7e71 53be
000001d0: 9a5e a3bd 384a 7e3c dad2 003b 5bbc c6bc
000001e0: 5b9c 853e 800d 913e 9a03 523e 1c9d 803e
000001f0: d052 a7bd 52fd 1dbe 87b4 2bbe 10aa 10be
00000200: cc7e 9ebd 6341 2bbe c019 e9bd 6d39 03be
00000210: c9b2 65be df1b c4bd 2d9c 8d3d 57d5 003e
00000220: ee49 983d 0dc0 8e3b fd7a 623c 3611 203e
00000230: 2ae9 123f dc9d db3e 5dc6 b13e 281d 0c3e
00000240: 6eef dd3d dfb3 103e 0398 133e ba16 083c
00000250: 95f4 793d 53a0 783e
0.1450456 0.12426746 -0.16788511 -0.17558198 -0.21743833 0.117156 -0.073257335 -0.05333368
-0.2172824 -0.2317422 0.015989186 -0.13672762 -0.33769614 -0.26580477 -0.21825974 0.13928066
0.048814427 0.06749773 -0.043846864 0.062013242 0.27200803 0.25091046 0.13771196 0.3847718
0.31068772 0.09303731 0.18858095 -0.06952923 -0.058465995 -0.12290128 -0.15807511 0.017536584
-0.21955332 -0.20904787 -0.33457747 -0.2415645 -0.25954825 -0.08229161 -0.119963564 -0.08283614
-0.09155201 -0.2752711 -0.16918935 -0.24602862 -0.10653897 -0.15531568 -0.06308381 -0.00421146
0.005619033 0.26087615 -0.13366574 -0.19043021 -0.14747158 0.051491104 0.29509562 -0.112205654
-0.014272737 -0.026775274 0.1488945 0.29215926 0.15972722 0.13270627 0.0061199525 0.23341455
0.32409102 -0.032596815 0.003043524 0.08238978 0.27098817 0.2873368 -0.36227384 -0.20137297
0.10851653 0.37525088 0.2879809 0.22859043 0.24341355 0.09163087 0.12681374 -0.018992834
-0.10222764 0.20162061 0.07333355 -0.34554484 -0.16220854 -0.02571266 -0.055062845 -0.22391738
-0.2145995 -0.30891854 0.105414145 0.08801038 0.006160049 -0.18738243 -0.34841013 0.08027666
0.21364045 0.052299384 -0.2562344 -0.22436136 0.22879544 0.24112685 0.16397125 0.14687787
-0.14529926 -0.16842194 -0.3303652 -0.29713336 -0.19334215 -0.20899878 -0.33092758 -0.2504676
-0.37778038 -0.0955885 -0.113432504 -0.20648763 -0.07977028 0.015520625 0.0019656927 -0.024259737
0.26095852 0.28330612 0.20509186 0.25119865 -0.08170092 -0.15428665 -0.16768084 -0.14127374
-0.07739028 -0.16724162 -0.113818645 -0.12814875 -0.22431482 -0.095756285 0.06914554 0.12581383
0.07435976 0.0043563903 0.013823268 0.15631565 0.5738703 0.42893875 0.34721652 0.13682997
0.10836683 0.14131115 0.14413457 0.0083062 0.061024267 0.24279909

features.0.bias f4 [6]
00000000: 5f54 8bbd 68ca 133c 07fa fbbc a482 973e
00000010: 11cc de3d ab7e 943c
-0.06803202 0.009020425 -0.03075887 0.29591858 0.10878766 0.018126806

features.3.weight f4 [16, 6, 5, 5]
00000000: e799 623d 3902 2abd 693c 3dbc 15ed 2abd
00000010: ab7e 77bd 3a80 073d 818c 053d 46e8 ad3c
00000020: 9d44 1b3d cc19 113d cd2d 5a3c b175 b13c
00000030: c477 c8bd 38ff dcbc 8958 8a3d 821f 7cbd
00000040: 8586 f1bc 5fb7 b4bd 9b66 11be 3698 81bb
00000050: e6d5 0ebd 0d39 dfbd 0f23 83bd 9c4e bebd
00000060: c0db 023d 6b8e 6c3d 9816 fd3d 21d8 c23d
00000070: 0ba6 a23d 72bf 353d ce60 ac3b f84b 7ebc
00000080: b5ae 6ebd c46e aa3c 02db d33c cea0 a93b
00000090: f19c 0cbe 1c83 a3bd 9c6a 06be e1f5 04be
000000a0: e130 c7bd 8ca7 89bd 9112 debd 9598 a8bd
000000b0: e6a7 91bd 263a 8f3d 2c70 15bd 7e23 2cbd
000000c0: 84e4 16bd 9fa4 9c3d e2e1 73bd fcea f23a
000000d0: 8b85 0ebd 1832 87bd 17c1 91bd db76 c3ba
000000e0: 5261 2d3d db31 883c a979 203c 3b78 81bb
000000f0: a509 5e3c 7e05 303d 7810 023e 323b ba3b
00000100: 1a0c 313d 4e11 d73d abc3 b43d 23d1 903d
00000110: 4fb6 f4bc a54a 263d 6a6c e5bd 890c 14bd
00000120: 62d1 0fbd dcb2 97bd 2cf3 69bd 0642 dd3d
00000130: 743f b53d b2c2 123e ce5d fc3d 51f1 063d
00000140: 6095 583d 86eb 2abd 9abe ddbc 55ee 203d
00000150: ba8c 863d 4a74 d93b fca2 aabd c4bf 80bd
00000160: 810c 93bb 1f9f b9bd 62d1 c93c d700 f6bd
00000170: 9392 2ebd 3e1f b93b 661a 0dbc 80a2 be3d
00000180: 15d6 993d 5dc2 a93c b0fa 8c3d e21e 893d
00000190: 1e25 c93c 77e0 c03d 490f 4d3d 15c3 c53c
000001a0: 9c71 99bc 6357 cb3d 0647 013e 304b 0c3e
000001b0: e439 803d 0366 e4bb ba6a 893b f20a 753c
000001c0: 5972 863c aa58 67bd 628d d7bd 1fca 86bd
000001d0: 9c21 fabd 8abf 61bd b556 06be 4655 0dbe
000001e0: d777 c13d 0a88 2fbc 4b48 1abb f35c 113c
000001f0: 7851 403d 480c bfbd 00cd f1bd 867b f0bc
00000200: cd50 5abd e42c d43c eec5 46bd 2fd5 5e3c
00000210: 0e50 7d3b 288a 303d 7bcc ec3c 434c 803d
00000220: 7d09 b53d 485b 973d af13 803d b36e be3c
00000230: 0aca 083d 70d4 99bd c06c 7b3c c1b1 8bbc
00000240: 858b a3bd ce80 a9bd ce97 13be f30c a2bd
00000250: 34ca 8ebd b509 1bbe 0a04 91bd 2504 2abc
00000260: 2c04 bd3c 056f bdbb f7ec 42bd 7bba dbbc
00000270: 6d74 523d a6aa ce3c 7351 ad3d 01c2 f23d
00000280: 32a1 533d 5169 a13d 662e e53d b35d 9f3d
00000290: 0043 f13c 69ed 263e 3188 3c3d 2ad4 2e3d
000002a0: 9986 823c 79c3 463c fa1e 943c fc7f b2bd
000002b0: a020 90bd 3550 b2bd 8e18 45bd 34d4 d6bd
000002c0: 1d49 ce3c 8a39 b9bc 94ca 94bd 025f 853d
000002d0: cdde 193d 0c81 283d d36c 103d 5291 a83d
000002e0: 4933 663d 33c1 4b3d c6ae 023e 6e9d b33d
000002f0: 47c1 82bc bbf1 883d b254 8d3d 5dbc a73d
00000300: 1961 e0bb 7a33 b73c 898e e1bc 3c3f cdbc
00000310: f91c 8abd d8e4 4cbd 702e 2abd d7ea 40bc
00000320: 0cbb 72bd d97f 3d3b a8c6 c4bd dcba 9ebd
00000330: 22d3 3cbe 4460 22be 50d0 f8bd 5cbb a1bc
00000340: a6a1 30bd 6f49 f8bc e7f4 a9bd 381d 11be
00000350: fa4c bebd 64d8 3abd 5378 b8bd 933c dc3c
00000360: 647c 4cbd 06b9 0cbd 6bb4 b2bd a36d c0bd
00000370: eef8 353e 6fbe 2e3e e718 d53d e97e 653d
00000380: 7fbe 233d d64d a63c 93c0 863d c4c9 e53d
00000390: 2bb0 d13d 59f8 413e 78e2 053e 213e 043e
000003a0: 2835 8b3d 846c d33d 16ae 8f3d 9644 003e
000003b0: 490f 373d 8bf6 0fbb dae8 24bd 7c88 2a3d
000003c0: c375 4e3d f1be 07bd fdb4 8ebd 6b0b 0b3d
000003d0: fc52 663d 99e8 20be bc23 2ebe 3324 9fbc
000003e0: 7f17 32ba 0382 e7bc d077 93bc 0f4c 83bc
000003f0: 5e2e 6bbd 74f1 bb3c fec9 31bd 2a34 81bd
0.055322554 -0.041506026 -0.011550047 -0.041730005 -0.060423534 0.03308127 0.032604698 0.02122892
0.03790723 0.035424992 0.013316584 0.021662565 -0.097884685 -0.026977167 0.06755168 -0.061553486
-0.02948309 -0.08824038 -0.14199297 -0.0039549125 -0.03487196 -0.108995534 -0.06403171 -0.09292337
0.03194785 0.057753008 0.12357825 0.095138796 0.079418264 0.04437203 0.0052605635 -0.015521042
-0.058272082 0.02080477 0.025861267 0.00517664 -0.13731743 -0.079839915 -0.13126606 -0.1298442
-0.0972612 -0.0672141 -0.10843385 -0.08232228 -0.07112102 0.06993513 -0.03648393 -0.042026035
-0.036839023 0.076485865 -0.05954159 0.0018533166 -0.034795325 -0.066013515 -0.07116907 -0.0014912741
0.04232914 0.016625335 0.009794631 -0.0039511 0.013552104 0.042973988 0.12701595 0.005683326
0.04322443 0.105013475 0.08826383 0.0707114 -0.029872088 0.04059853 -0.11202319 -0.036144767
-0.035111792 -0.074071616 -0.057116672 0.108036086 0.08849993 0.14332083 0.12322579 0.03294498
0.05287683 -0.04172852 -0.027068425 0.03928979 0.0656981 0.006636177 -0.08331868 -0.062865764
-0.0044875746 -0.09063553 0.024635974 -0.12011879 -0.042620253 0.0056494763 -0.008612251 0.09308338
0.07511536 0.020722562 0.06883752 0.066953436 0.024553832 0.09417813 0.050063405 0.024140874
-0.018730931 0.09928777 0.1262475 0.13700557 0.06261042 -0.0069701686 0.004193631 0.014956223
0.016411947 -0.05648104 -0.105250135 -0.0658152 -0.12213442 -0.055114307 -0.13119014 -0.1380206
0.09446686 -0.010713587 -0.0023541625 0.0088722585 0.046952695 -0.09328514 -0.11806679 -0.029355776
-0.053299714 0.025900312 -0.048528604 0.013600632 0.0038652453 0.043100506 0.028906098 0.06264546
0.088397 0.073904574 0.06253754 0.023246145 0.033395804 -0.07511222 0.015345752 -0.017052533
-0.079855956 -0.08276521 -0.14413378 -0.07912626 -0.06972161 -0.15140422 -0.070808485 -0.010376965
0.023073278 -0.005781057 -0.04758927 -0.02682232 0.051380564 0.025227856 0.08462801 0.118534096
0.0516674 0.07881416 0.111904904 0.077815436 0.029450893 0.16301502 0.04602832 0.042682804
0.015933322 0.012131565 0.018081177 -0.08715817 -0.07037473 -0.087067045 -0.04811912 -0.10489693
0.025181348 -0.022610445 -0.07265201 0.06512262 0.037565995 0.041138694 0.035260033 0.08230843
0.056201253 0.049744796 0.12761983 0.08770262 -0.015961302 0.066867314 0.0690092 0.08190224
-0.0068475124 0.022363413 -0.027533786 -0.025054567 -0.06743807 -0.05002293 -0.041548193 -0.01177474
-0.059260413 0.0028915314 -0.09608203 -0.07750484 -0.18439916 -0.15857035 -0.121491075 -0.01974266
-0.04312291 -0.030308453 -0.082986645 -0.14171302 -0.09292026 -0.045616522 -0.09007325 0.026884353
-0.049923316 -0.03435614 -0.08725818 -0.093959115 0.1777074 0.17064832 0.1040514 0.056029234
0.039976593 0.020300787 0.06579699 0.11220124 0.102386795 0.18942393 0.13074672 0.12914325
0.06797248 0.10323432 0.07015626 0.12526163 0.04469231 -0.002196702 -0.040261127 0.041634068
0.050405275 -0.03314108 -0.069681145 0.033946436 0.056231484 -0.15713729 -0.17005819 -0.01942644
-0.00067936623 -0.028260237 -0.018001467 -0.016027479 -0.057417266 0.022942282 -0.043405525 -0.06308778

features.3.bias f4 [16]
00000000: 2e62 7b3d c2b6 fe3c 5c32 74be 3083 61bd
00000010: 1005 4ebe 13ee a0bd c73c 833d 88e5 353c
00000020: e2d5 a93d 247f 7039 34e8 f33d f2c6 09bd
00000030: fda2 2b3a 5386 71be 618c e9bb 5123 debd
0.06137293 0.031093005 -0.23847336 -0.05505675 -0.20119119 -0.07857909 0.06408077 0.011102088
0.08292748 0.00022935547 0.119095236 -0.033636995 0.00065474195 -0.23586397 -0.00712733 -0.1084658

features.6.weight f4 [120, 16, 5, 5]
00000000: 4a95 1f3d 9cad 253c 2536 d23b 9e40 a4ba
00000010: e3a7 c9bc 671b 103c 534e 823b a1de d6bc
00000020: 2e78 30bd c95f 6c3c 9f7f a6bc cdf8 23bc
00000030: 5902 20bd 481d 363d 48ea 583d 22c5 983b
00000040: f5cd 94bc 00d8 823c 3fac c73c fe09 a5bc
00000050: 99bc 81bd 786f 16bd a8b8 6bbd e39a c73a
00000060: 7ba2 663b a7f0 a33b 9c3f ecbc 99a1 fdbc
00000070: 9d40 f13c a3b6 f1bb 20b1 3fbd 3516 97bd
00000080: 7ea8 58bd e1f3 a7bc 6a32 e63c 272e 05bd
00000090: c2d1 313c 4797 13bd 21b2 4dbc 54c2 fd3c
000000a0: 3471 12bd d0fc 5b3d b91b 8938 bc16 15bd
000000b0: ac6c c2ba c2e6 00bc e93e 4f3d 8417 ea3c
000000c0: 9c3b 823c e30e 773d 7c46 9cbb a5a0 6dbd
000000d0: abd6 b1bd 7840 c3bd 660f 93bc e2d5 c83a
000000e0: 240e 4f3c f961 053c 1e6b fabc 7fe9 75bc
000000f0: fe46 f0bc bcb4 df3b 478a 3b3c 1a13 e23b
00000100: d3e7 5b3b 0eef 75bd ac66 3dbd e4b4 41bd
00000110: fba1 7cbb 4090 b93c 72d9 3abd eeca 39bd
00000120: 2f7a 3ebc 6afa 5c3d fc9f 9a3c fde0 113d
00000130: 3bcc 8c3d af66 4f3d 987c e93b df2f ef3c
00000140: 8b83 a63b ce56 48bd 23cd 943c 0ced da3c
00000150: 4040 4bbc b2a0 49bd 2f07 8abc 2d2e f03c
00000160: 134a eabc 986e 29bc a703 be3d 268d 473d
00000170: 8a7f 84bb 7265 4abc bee7 03bd 5c50 9e3c
00000180: ff82 443c 5856 8b3c 1b24 0dbc e748 a5bc
00000190: 5c76 cabb 4884 30bb c850 65bd 1446 14bd
000001a0: e84b 0eba 72d9 28bb b826 3a3c 6f01 393c
000001b0: a9ce a5bc 4c0e 39bc e6ed b3bc 18b3 b93c
000001c0: b2c0 e9bc 5ced b03c b2c1 0abd 0b7f 0f3c
000001d0: f5af e13c 000a c63c a5b6 da3c a46e 1cbc
000001e0: 668a f6bb 9908 023c 9e67 e93c 73e2 b53b
000001f0: 1634 723d add1 5f3c e0a6 653d f85e 973d
00000200: b53e 953d f406 8e3b 00a1 e73c 7c4c 68bd
00000210: 0064 7bbd caa7 cb3b e789 93bc 5ba7 113d
00000220: 8f11 ebbc a3d9 4cbc 1a71 9ebc 7e59 0ebd
00000230: 55bd 2abd c7b9 31bd 96cf 5bbd 1520 9ebd
00000240: 7eee 0dbd 3bd2 93bd caa7 64bd 588e 4abc
00000250: 012d 413b 765e dc3c 936d 843b e8a3 5e3c
00000260: cb0d 73bc 8948 263c 80f9 30ba 6d37 04bd
00000270: d8d6 32bd fb7f 3fbb c7d4 07bd 5814 dbbc
00000280: 30ae 0f3d 0d7b 8d3c 1579 f5bc 3382 7bbc
00000290: 0b7d be3b 803e 04bd ab61 6b3d d8aa 983d
000002a0: 6e8d 913c 71b5 22bc 73e1 a2ba 2c6e cfbc
000002b0: e857 533c 4c94 003c 01da 0e3d f7bf cb3b
000002c0: 2936 003d 3e14 b23c c67b db3c f595 9e3b
000002d0: 2507 363c 91f8 d53c 139a 7f3b 1832 783d
000002e0: f05f 543c f549 163b 8bfd cbbb e92c 32bd
000002f0: d146 363b 5d74 58bc ca74 95bc f4f6 4fbd
00000300: 6865 cebc 5135 aebc c02f 523c 3394 8a3c
00000310: cc71 c6bc 8522 9bbc fbce e8bc 5ff1 6a3b
00000320: 8080 2dbb ca40 813d 3593 383c 9873 eb3c
00000330: 24e1 5b3c 1114 183d 7b2d 0c3d 12a8 153d
00000340: bd68 f0bc e211 de3c ca74 6f3c f3bb 8a3c
00000350: 2afb 55bc 4fb8 a438 b2bd dabc 7cbf 8b3d
00000360: b0f2 d7bc 9e4c 70bb 61b6 d83d 0de7 8b3d
00000370: 3ff5 a7bc 748e e13b 6b8f a23b b263 a23d
00000380: ffba 153d 8811 efbb 34bd 4739 cdb6 49bd
00000390: 3538 1bbd b9a5 f0bc 03cb 1ebc af21 f4bc
000003a0: e339 f8bc 8e66 343d bf92 243d ab10 7c3c
000003b0: 84a3 fa3c 73d6 103d 0790 de3c cb15 333d
000003c0: de1a 8d3c 241c b13d 693c 423c c603 443c
000003d0: 7525 e63b f3fb 45bd 0caa 1abd ba19 193b
000003e0: c736 df3c ea16 5a3d 10f9 66bc c967 17bd
000003f0: ed80 8dbb 2348 2dbd df4e a5bc 3982 1fbc
0.038960733 0.0101121925 0.006415146 -0.0012531464 -0.024616187 0.008795596 0.003976622 -0.026229205
-0.043083362 0.014427134 -0.020324526 -0.010008049 -0.03906474 0.04446152 0.052957803 0.004662172
-0.018164614 0.015972137 0.024374126 -0.020146366 -0.063348 -0.0367274 -0.05754915 0.0015228655
0.003519206 0.005003053 -0.028838925 -0.030960845 0.029449755 -0.0073765083 -0.04679978 -0.073772825
-0.05289506 -0.020502033 0.028100211 -0.032514717 0.010853233 -0.03603294 -0.012554676 0.030976452
-0.03575249 0.053707898 6.537833e-05 -0.036398634 -0.0014833412 -0.007867517 0.050597105 0.028575666
0.015897565 0.06031693 -0.0047691446 -0.05801453 -0.08683523 -0.09533781 -0.017951678 0.0015322531
0.012637649 0.008141034 -0.030568656 -0.015009283 -0.029330727 0.006826965 0.011446542 0.0068992497
0.0033554926 -0.060042433 -0.046240494 -0.04729165 -0.0038548696 0.022651792 -0.04561753 -0.045359544
-0.0116258105 0.05394975 0.018875115 0.035614956 0.06874891 0.050635036 0.0071254484 0.029197631
0.005081599 -0.04891091 0.018164223 0.02672436 -0.012405455 -0.049225517 -0.016849129 0.029318893
-0.028599774 -0.010341309 0.092780404 0.048718594 -0.004043524 -0.012353288 -0.03220343 0.019325428
0.0119941225 0.017008945 -0.008614565 -0.020176364 -0.0061786603 -0.0026934315 -0.055985242 -0.036199644
-0.0005428181 -0.0025764373 0.01136177 0.011291846 -0.020240145 -0.011294913 -0.021964025 0.022668406
-0.028534267 0.021597557 -0.03387613 0.008758317 0.027549723 0.02417469 0.02669842 -0.009547863
-0.0075238226 0.00793662 0.028491791 0.0055506765 0.059131704 0.01366083 0.056067348 0.07391161
0.07287351 0.004334325 0.028275013 -0.056713566 -0.061374664 0.0062150704 -0.018010093 0.035559993
-0.028694896 -0.0125030605 -0.01934104 -0.034753315 -0.041684467 -0.04339006 -0.053664766 -0.07720963
-0.034651272 -0.07217833 -0.05582408 -0.012363039 0.0029476287 0.026900511 0.0040413826 0.013588883
-0.0148348315 0.01014913 -0.00067510456 -0.03227942 -0.043661922 -0.002922057 -0.033161905 -0.0267431
0.035078228 0.01727059 -0.029964963 -0.015350866 0.005813246 -0.032286167 0.05746619 0.07454461
0.017767634 -0.009930954 -0.0012426808 -0.025321089 0.012899376 0.007847857 0.034875873 0.0062179524
0.03130165 0.021738168 0.026792418 0.0048396536 0.011110102 0.026119502 0.0039001748 0.060594648
0.012962326 0.0022932265 -0.006225293 -0.04349986 0.0027813206 -0.013211337 -0.018244166 -0.050772622
-0.025194839 -0.021265658 0.012828767 0.01691637 -0.024224184 -0.018937359 -0.028419008 0.0035849435
-0.0026474297 0.06311186 0.011265566 0.028741643 0.013420377 0.03712851 0.03422306 0.036537237
-0.029346818 0.027108137 0.014615247 0.016935324 -0.01306037 7.8544595e-05 -0.026701782 0.06823632
-0.02636084 -0.003666676 0.10581661 0.06831179 -0.020502685 0.006883437 0.0049609444 0.079291716
0.036555286 -0.007295791 0.00019048603 -0.049246598 -0.0378954 -0.029375898 -0.009691956 -0.029801218
-0.03030104 0.044043116 0.04017901 0.015384833 0.030595548 0.035360765 0.027168287 0.043721955
0.017224725 0.086479455 0.011855223 0.01196379 0.007023508 -0.04833598 -0.037759826 0.0023361281
0.0272478 0.05324451 -0.014097467 -0.03696421 -0.0043183477 -0.042305123 -0.02017921 -0.009735637

features.6.bias f4 [120]
00000000: c8a8 6a3c 18d8 293d 9834 fd3c a239 843c
00000010: d4b4 953c edb3 2e3d aaa5 473b 75ba 5dbb
00000020: cd55 023d 9aef cb3c 687b 00bd 9304 23bd
00000030: 3c9c 223c 7484 ef3c d412 0e3d 7271 203c
00000040: 94bf c8bc 8587 e6bb 829c c6bb c787 0b3d
00000050: 4a55 e0bc 7799 2dbb 9a2c e23c a895 b7bb
00000060: 5776 98bd aee3 4c3c 2b50 3fbb 72a6 98bc
00000070: 9d00 543d b6b1 463c 7c69 c0bb 4e5b 46bc
00000080: df56 d7bd 8f55 1b3d 8a46 93bc ca13 dabc
00000090: 7b21 f83b 0121 423d 6b9b 0ebd 8da2 61bd
000000a0: ee2f 32bd 1c6f 4bbb 8157 0f3d 68d7 0b3b
000000b0: f8ca e83c aa30 633d cd72 903c dea7 c53b
000000c0: 7d3c e83c 4d3d 81bd 3d66 ce3b f766 663a
000000d0: 85c0 8bbb 7f39 0d3d 1586 df3c 0ccf 05bd
000000e0: 8fee f3bc 483d e9bc 198b 13bd 8c00 413d
000000f0: 5356 c73c aa7e 5dbd b290 d33b bbda 043b
00000100: 6190 f03c dcec 9a39 92ed ddbc 4678 0cbc
00000110: 17f8 04bd b054 833c 48a6 02bd aa0f c93c
00000120: b8eb e5bc a3a8 f4ba a0ad 24bc 57a8 063c
00000130: 5fc0 e9bc 9b91 2bbd 28cd 8bbc 4729 833d
00000140: 5749 643c cf9a fa3b e31f 2b3d ea00 953c
00000150: a4ae f5bc 7440 583c de9b 11bd da0e f63b
00000160: eb12 eb3b 204f 033d d98a 99bb 9b03 a63c
00000170: 2ec9 88bc 829e ae3b d636 a2bc f4f0 203d
00000180: 8d80 4fbc feb3 89bc 711a 45bd 5e76 1e3d
00000190: 0eae 063b a2bd cd3b d113 383c 96fb ce3c
000001a0: 2dc4 12bd 43ba 04b9 bb42 c4bc f34d 8bbb
000001b0: 64d6 f63c 84ec 153d 156b c6bc 1f55 73bd
000001c0: 3af9 71bd afa0 803d 652c 9fbc bb94 2dbd
000001d0: 3934 0ebd d4c0 6c3d e8fe 09bd 195d 083d
0.014322467 0.04146585 0.030908868 0.016140763 0.018274702 0.04265206 0.0030463734 -0.003383306
0.031820107 0.024894524 -0.03136769 -0.039799284 0.0099249445 0.029237963 0.034685925 0.0097926725
-0.024505414 -0.007035198 -0.0060611377 0.034065034 -0.027384419 -0.0026489177 0.027609158 -0.005602557
-0.074444465 0.012505455 -0.002919207 -0.018634055 0.051758397 0.0121273305 -0.0058719497 -0.01210673
-0.10514616 0.037923392 -0.017977972 -0.026620764 0.0075723506 0.047394756 -0.034816187 -0.05508666
-0.04350274 -0.0031041568 0.03499556 0.002133811 0.028417096 0.05546633 0.017632866 0.006031974
0.028349156 -0.0631052 0.006298809 0.00087891467 -0.0042648935 0.03447866 0.027285615 -0.03266816
-0.02977684 -0.028471604 -0.036021326 0.047119662 0.024333155 -0.054075874 0.006456458 0.0020271975
0.02936572 0.00029549643 -0.027090821 -0.008573597 -0.03246316 0.016031593 -0.03189686 0.024543602
-0.028066501 -0.001866598 -0.010051161 0.008218846 -0.028534112 -0.041886907 -0.0170656 0.064043574
0.013933501 0.007647849 0.041778456 0.018188912 -0.029990502 0.013198961 -0.035549037 0.0075090947
0.007173886 0.03205788 -0.0046857414 0.020265391 -0.016697492 0.005328954 -0.019801538 0.03929229
-0.012664926 -0.01680946 -0.04812092 0.038687102 0.0020550522 0.0062787095 0.011235193 0.02526645
-0.03583162 -0.00012657889 -0.0239576 -0.0042512356 0.030131526 0.036602512 -0.024220983 -0.05940735
-0.05907557 0.06280648 -0.019430349 -0.04237817 -0.034717772 0.057801083 -0.033690363 0.03329191

classifier.0.bias f4 [84]
00000000: f987 85bd f5d5 02bd 5c7a 663d fb47 bcbc
00000010: 920a af3b c1ae ad3c 8b32 9dbc b449 d6ba
00000020: 9daa 3e3d acf0 f93c 8f23 30bd e478 953d
00000030: 6e2a 053c 6853 d5bc 4b9d 123d e7b9 72bd
00000040: b80b 113b a140 16bd 6cf9 15bb e1c0 36bd
00000050: 5875 803d 2966 963d b688 413c 363c 373c
00000060: 29b8 a63d 92d5 793a 9607 b2bc f5ce 013d
00000070: 27ca e43d 1e65 a6bb 0e6b 773d bf6b 5abd
00000080: d602 fcbc 9ebb 683d 12a0 0ebc 745d a6bc
00000090: ccce 603b 1aa8 d03c 0401 3dbd 31e1 9bbd
000000a0: b026 1b3d 5bed aa3c e5c6 a0bb 4664 f3bb
000000b0: 917a c0bd fd83 953d 6d67 583c 1c82 14bd
000000c0: 833a 3f3d 8013 60bd 5e0d 263d ec6d 44bd
000000d0: 8e31 91bb 9ccd 08bd 88d7 c1bd e875 9b3c
000000e0: 156d c73d b40b e73c 0024 253d 0357 8fbd
000000f0: b84a a13c 0be4 53bd 7f08 febd 773b 38bd
00000100: c35b 09bd a9e4 cf3d ce5d d03c d186 793d
00000110: 2bd3 9ebb 8f71 90bc 091c 8a3d c1c0 463d
00000120: 068e afbd 1d68 afbc c596 80b8 d99d 93bd
00000130: 5b2e bbbb b48e 96bc 7961 7dbd 0787 0cbd
00000140: 531f 1abc 296b 60bd 15ed adbb 8280 923c
-0.06520075 -0.031942327 0.056269035 -0.022983542 0.0053418363 0.021201493 -0.01918914 -0.001634887
0.04654943 0.03051027 -0.04300266 0.07298449 0.008127792 -0.026040748 0.035794538 -0.05925932
0.002213223 -0.03668273 -0.0022884263 -0.044617537 0.062723815 0.07343704 0.01181238 0.011183789
0.081405945 0.00095304206 -0.021732133 0.03169151 0.1117137 -0.005077972 0.06040483 -0.05332541
-0.030763071 0.05681955 -0.008705156 -0.020308234 0.0034302948 0.025470782 -0.046143547 -0.07611311
0.037878692 0.020865133 -0.0049065226 -0.007427725 -0.09398378 0.073005654 0.013208252 -0.036256894
0.04668666 -0.054706097 0.04054009 -0.047956392 -0.004430956 -0.03339921 -0.094649374 0.01897712
0.097376026 0.028203823 0.040317535 -0.06999018 0.019688949 -0.05173115 -0.12403964 -0.044978585
-0.033534776 0.10151035 0.025435355 0.060919587 -0.0048469505 -0.017632274 0.067436285 0.04852367
-0.08572011 -0.02141195 -6.131599e-05 -0.072078414 -0.005712313 -0.018378593 -0.061860535 -0.03430846
-0.009406882 -0.054789696 -0.0053078034 0.017883543

classifier.2.bias f4 [10]
00000000: cf3a a7bd 0506 1ebd 3908 643e 9213 ad3b
00000010: 70b9 ccbd 36c3 373e e1e3 ffbd fdf9 633d
00000020: dc05 11bd e1d0 323c
-0.08165514 -0.03857996 0.22268762 0.005281874 -0.09996307 0.17945561 -0.12494636 0.05565833
-0.03540598 0.010914058

30 f4 [120, 84]
00000000: 966e b73b ff1d 13bd 7a36 39bd 1b7b 363c
00000010: 7c74 65bd 1540 e23d 2bf6 3d3d 25a4 c6bd
00000020: 0873 103d 7432 f6bc 2909 9dbb d84f 8fbc
00000030: 9715 243c 369a 1bbd d0ad 123d 7a95 9b3d
00000040: 0919 823d 97c0 433c 79c7 95bd 5df2 733d
00000050: 6879 9ebd 66fb 45bd 3593 013d d0cb bb3d
00000060: 946a 013e 91dd 013d 7465 40bd 2917 34bc
00000070: 21fd d2bc fba2 0ebe 9e87 56bd b689 af3d
00000080: 9f60 90bd fde1 bf3d 9eef 02be 6d25 24ba
00000090: fc6a 7dbc a107 c6bb 5be1 8bbd 5fdc edbd
000000a0: 8cf0 c63d be82 a0bc 3604 c13d e765 6ebc
000000b0: 65db cb3d f925 c9bd 613c 41bc 62e5 d33d
000000c0: 2962 1ebd e75f eebd 7c72 8f3d eb29 b23c
000000d0: 9943 f8bc 16ce adbd 37da db3c 62be 08be
000000e0: d3b2 9e3c 01b8 91bc a120 813d 3061 4d3c
000000f0: c850 82bd a025 a83b 0e9e 823c cad1 c2bd
00000100: 59c0 d0bd 6a74 dcbd faf1 7a3d 1e7c c7bc
00000110: c6c2 b03d adb0 073d df12 973d d3c3 bbbd
00000120: fa99 48bd eaff 8e3c c561 80ba c801 203d
00000130: 9d00 133d f5ae adbd 2640 81bb 3b2a 343d
00000140: eaca 503d 64d7 84bd d600 6abd d1ca 7cbc
00000150: 2954 ee3d d2d7 c5bc 9227 833d 1be9 fa3d
00000160: 8562 fc3b 6737 a1bc f827 03bc 8516 fcbc
00000170: 64f0 cfba c806 f0ba 15fa 633d 393f 87bc
00000180: 3ef0 c23c 02f2 d7bd 6a5a 76bd de36 0b3d
00000190: e58b 783c 27f1 c7bc 8d78 79bd a8c4 b8bc
000001a0: ea9c febd 984f dfbd 13b4 27bd 29ff b73d
000001b0: 136b 803d 105d 2fbb a01a b23c 1b1e 4f3d
000001c0: 7f44 b4bb dfcc a4bc 100f 853d 04e3 063d
000001d0: 7699 e73b 3002 28bd dfa9 9bbd 3c8d 42bd
000001e0: 1372 d83b 7369 bfbd c5f2 9f3d 2b3c 3bbb
000001f0: d5a9 7e3d 6853 42bc 9ba3 b1bd 988e 12bd
00000200: cd08 743c 8680 ebbc 89ce 95bd 3661 fd3d
00000210: 61ff 0fbc c994 1abd ec58 623c cb6b b63c
00000220: 9b6e 49bc ccd0 7bbc 61e8 64bd eb7b cfbc
00000230: d8e4 d1bc 40f2 203d 0b50 5bbd cc7b c53d
00000240: 9665 7ebd d7a7 af3d 830a 4cbd 4ab4 1bbd
00000250: e240 7ebd 66fa fdbd db23 bf3d f92d 5c3d
00000260: 3dfe f43c f995 783c 4592 e4bc e19c c4bc
00000270: c704 543a 83ba 92bd bc0b bcbd d139 053d
00000280: 4aaa bbbc 27b1 853d 18df b8bd 3c93 a3bd
00000290: 882d 25bc 368c 3dbd d2fa 9abd ec0f 313d
000002a0: 2d7f a1bd 580f 95bc 8067 2cbc 0c96 23bd
000002b0: 7261 8f3d 7be2 353d a1cf eabb f762 443d
000002c0: a5d9 f53c cd50 d43c 6804 383c af71 2fba
000002d0: 17f2 42bd a9be 10bd 1545 a13d 7231 663d
000002e0: 205a a33d d196 a73d 4c97 a73d 7fe2 353c
000002f0: c52a 4a3d e5e1 403d a053 56bc 9a6e e0bc
00000300: 05eb 08bd 6d19 b93d 8455 033c 0d84 39bd
00000310: 8196 853c 3978 28bd 69f5 b4bc 1fbf 943c
00000320: 922c 333d 41a9 bcbc aabd 723d 2eb4 7c3d
00000330: a321 31bd 0fb0 7a3c d970 c5bc 3b03 86bd
00000340: 38c8 af3d 08ff a43d 2a90 2bbd 99e5 44bc
00000350: 6427 3c3d 08bb 9c3d 983c 383d e90c dcbd
00000360: 4651 c33c 22ed 933d 8170 f9bc 3a86 e73a
00000370: ae66 97bd 6e84 3abd 88d9 b03a eb4b 473c
00000380: 3cd7 843d 18b6 4b3c 3ae3 9bbc 3645 8e3d
00000390: 89d0 533d 51bf bdbd 880d 4c3b f33a b2bd
000003a0: 0968 313d 01e8 913d b059 90bc 2d9b c9bc
000003b0: a661 0bbd 0103 96bd 394d b93c f58d d8bc
000003c0: 1040 03bd 7eae 1bbb 1ebf 9b3d bf94 df3c
000003d0: 8ee1 31bd 6ee0 3a3c 9019 6abc 8cfd 13ba
000003e0: cf0e 59bd ff94 6abd 3ed1 8dbc aff3 803c
000003f0: e0e8 35bd e238 a53d 8ae2 a8bd 1064 af3d
0.0055978997 -0.03591728 -0.04521797 0.011137749 -0.05601929 0.11047379 0.046377342 -0.09699277
0.035265952 -0.030053355 -0.0047923517 -0.017494127 0.010014913 -0.037988864 0.03581029 0.0759687
0.06352431 0.011947772 -0.07313437 0.059557308 -0.07738 -0.048335455 0.03163453 0.091697335
0.12638313 0.031705443 -0.046971753 -0.01099185 -0.025755467 -0.1392936 -0.05237543 0.08571188
-0.07049679 0.09369276 -0.12786719 -0.00062616804 -0.015467402 -0.00604339 -0.068300925 -0.11614298
0.097138494 -0.019593593 0.09424631 -0.014550663 0.099539556 -0.09821696 -0.011794181 0.10346486
-0.03866783 -0.11639386 0.07004258 0.021748504 -0.03030567 -0.084865734 0.026837451 -0.13353875
0.01937238 -0.017787935 0.063050516 0.012535378 -0.06363064 0.0051314384 0.015944507 -0.0951267
-0.101929374 -0.10764392 0.061265923 -0.024351176 0.086309 0.033127476 0.07376646 -0.0916821
-0.04897497 0.017456014 -0.0009794763 0.0390642 0.035889257 -0.08480636 -0.0039444147 0.043985587
0.050974764 -0.06486395 -0.057129703 -0.015429215 0.11637146 -0.024150763 0.06404032 0.122514926
0.007702174 -0.019679738 -0.008005135 -0.030772457 -0.0015864489 -0.0018312568 0.05565842 -0.01650964
0.023796197 -0.10544206 -0.06014482 0.033987872 0.015170072 -0.024406983 -0.06090598 -0.02255471
-0.12432273 -0.10903853 -0.040943217 0.08984215 0.06270423 -0.002675835 0.021741211 0.05056582
-0.0055013294 -0.020117221 0.064970136 0.032931343 0.0070678545 -0.04101771 -0.0760076 -0.047497973
0.0066053956 -0.09346285 0.078099765 -0.0028569798 0.062173683 -0.011860706 -0.086737834 -0.03578052
0.014894676 -0.028747808 -0.07314784 0.12372057 -0.008788914 -0.03773955 0.013815146 0.022268197
-0.012294437 -0.015369605 -0.055885676 -0.025327643 -0.025621817 0.039293528 -0.05354313 0.09642753
-0.0621086 0.08576935 -0.049814712 -0.038013734 -0.062073596 -0.12401275 0.09333011 0.05375478
0.029906387 0.015172475 -0.027901778 -0.024000587 0.000808787 -0.071644805 -0.09181926 0.03252584
-0.022908349 0.0652793 -0.09026927 -0.07987067 -0.010081656 -0.046276294 -0.075673714 0.043228075
-0.07885585 -0.018195793 -0.010522723 -0.039938018 0.07001008 0.04440544 -0.0071658646 0.047945943
0.030011008 0.025917435 0.011231519 -0.00066926604 -0.047594156 -0.035338078 0.078745045 0.0561995
0.07976174 0.08183063 0.081831545 0.011101364 0.049357194 0.04709043 -0.013081461 -0.027396489
-0.033427257 0.09038053 0.008015994 -0.04529195 0.016307117 -0.04113028 -0.022089677 0.01815754
0.043743677 -0.023029925 0.05926291 0.06169527 -0.04324497 0.015300765 -0.024101662 -0.06543585
0.085831106 0.08056456 -0.041885532 -0.012017631 0.045936003 0.07652861 0.04497966 -0.1074465
0.023842465 0.07222964 -0.030449154 0.0017663904 -0.073926315 -0.04553645 0.0013492564 0.012164096
0.06486365 0.012433551 -0.019029249 0.06946795 0.051712546 -0.09265006 0.0031135995 -0.0870265
0.043312106 0.07124329 -0.017620891 -0.024610126 -0.03402867 -0.07324792 0.02261983 -0.026434878
-0.032043517 -0.0023755128 0.07604812 0.027292607 -0.043427996 0.011406047 -0.014288321 -0.00056453864
-0.05299264 -0.057271 -0.017311689 0.015741197 -0.04441154 0.0806749 -0.08246334 0.08564007

31 f4 [84, 10]
00000000: 9551 61be ea01 97bd 6ffd 75be 8765 123e
00000010: 2d63 cc3d 4f8a 423e ee65 94be f9ad 5c3e
00000020: ce29 5c3e bea1 433e 8d99 aabd 86b8 443d
00000030: af45 a2bd 3dcb b43e b47b 993e e8d0 65be
00000040: b159 10be ff93 733e b30c c8be bfd9 7b3e
00000050: bb5d 783e f242 63bd 68b8 543e 09f3 f8bd
00000060: fa00 473e 191b c7be c170 a0be b50c 0d3e
00000070: 7508 f13d 6b92 eb3d ef07 d4bd a002 99be
00000080: 8e35 14be 24f6 893e e6de 90be f451 aa3e
00000090: af74 0c3e 0356 e3be 4b3f 4d3e 40e0 473e
000000a0: 60d8 863c 51dc 2ebe 5153 023e 3b4d 98be
000000b0: 7456 b03c b059 883e 2e8a 2b3e b351 84be
000000c0: 20ac f9bc 8e60 5bbc 76ff 68be 9655 743e
000000d0: fc3a 44bd 081a 133e 93ee abbe fa65 b13e
000000e0: b852 6fbe b437 373e 969c 35be 0261 363e
000000f0: 4f56 fb3d 3ba7 8d3d e20d 4dbe c45e 63bd
00000100: 6e90 393e 211d 8b3e 0ba3 85be ee13 db3d
00000110: 8212 45be 8d9f 9b3e 1c9c aebd 4c6b 373e
00000120: e9b3 d93d 23c0 8ebe df28 c53d e740 c9be
00000130: b2d2 383e 8413 83be e34d ca3e b029 cb3d
00000140: 7bd9 4ebe 80d1 cbbd 29d4 833a 7dbc 6cbd
00000150: 175e 703e c112 b93e 88e3 a9bd 6ae4 de3d
00000160: 7481 eebd 8561 6abe ad2b a13e 6802 073e
00000170: afa5 b8bd 1394 89bc a656 abbe 085c fdbb
00000180: 72bc 6b3e 87e3 36be cc99 723e bd2c 8bbe
00000190: 81b7 30be fbd0 94bc cce9 513e 9afe 883d
000001a0: b9a1 b23d d297 33be 2168 ccbe 51f4 033e
000001b0: cb10 593e 80ef 773e bd18 863e f5d4 c83d
000001c0: c089 b93e 8c6a 80be b7c9 943d 1f99 b1be
000001d0: 3acc 063e 369b f5bd 3fda 8abe e9e6 1bbd
000001e0: 54c5 8f3e 044c 17be 665e d3bb be53 5cbe
000001f0: 6314 bebd 2047 8ebe 5a59 ef3d 7953 803e
00000200: abab 5cbc 5508 9dbb 2b9d 70bd 578c 8b3e
00000210: 80d7 c33d 2ac5 a5ba 9540 60be 84a7 46be
00000220: 3488 04be c2df df3d 3021 91bc b4b3 093d
00000230: c633 4fbe b22a 5d3e dc0e 5dbd 1a1e 15bc
00000240: 2c91 70be 9329 ef3d f8cb 003e 8d5b 12be
00000250: 36fb 10bd 327f 15be a937 003d 35c1 87be
00000260: b961 81be 2aeb 74be d7e1 8b3e 7356 a13e
00000270: b697 b93e 139c b33d 2c42 44bd 6c2d 16be
00000280: a21d 323e 7c59 12be 3325 553e c726 653e
00000290: 8fb3 7dbd 2e57 aebd 4293 9a3e 0b29 24be
000002a0: 14b3 c9be 6607 39be 1989 7ebe 66ca 4a3e
000002b0: 102e 87be 653d 2c3d c649 4a3e ba64 803e
000002c0: 0cc3 973e 52d5 43be 12c1 8cbe 3327 503c
000002d0: 57ad 3a3e a6b5 08be 826c c03e 6153 2bbe
000002e0: 5be8 26be a903 46be e9c0 d13e 50db 19be
000002f0: 2655 73be c6bc 1cbe f377 203e 2d7a 0f3c
00000300: 623f cabd 53bd 4d3e 1f30 523e 7df1 7a3d
00000310: 8cc6 26bd e4e7 15be ea22 65be b42a 1d3d
00000320: 3d1c eabd 2d5a 3b3e 21f1 b83e 4635 b5bd
00000330: 2139 1f3e 8bc6 b0be 2103 e13d 7f82 9c3d
00000340: a95b aabe e31b 603d 5e2d 8fbd 210e 8e3e
00000350: d939 033c d962 f33d 5c30 fe3d 66d9 21bc
00000360: 43f1 23be d518 023e 715f be3c 6dc6 c3be
00000370: c18b 453e 1f60 ef3d c712 c2be 873e 4abe
00000380: 45ee 59bd f17a 5f3e 0b77 533e 0695 ec3c
00000390: 2fb6 06be 3043 28be ba75 6ebc 2f43 47be
000003a0: 7f45 dbbd d526 143e 30a7 1e3d b3b0 433d
000003b0: 48cf 493e e060 d4bd 05b5 11be b87c 8d3e
000003c0: c87a da3d 270e a5be eabc 0ebd e547 963e
000003d0: bcc3 03bf 597c 693e 69dd 4abe 685e 753e
000003e0: 9b24 513e 8ba7 8f3e 8cc6 853e beeb a9bc
000003f0: a6ee 10bd a908 9abe c2d8 6cbe 7ca1 783e
-0.22003777 -0.07373412 -0.24022458 0.14296542 0.09979854 0.18998073 -0.28984016 0.2155074
0.21500322 0.19104668 -0.08330069 0.048027538 -0.07923447 0.35311309 0.2997719 -0.22442973
-0.14096715 0.23786925 -0.3907219 0.24594782 0.24254505 -0.055483766 0.2077347 -0.1215573
0.19433966 -0.3888786 -0.31336024 0.13774379 0.11769191 0.115025364 -0.10353076 -0.29884815
-0.14473554 0.26945603 -0.28295058 0.3326565 0.13716386 -0.4440156 0.20043676 0.19519138
0.016460598 -0.17076232 0.12727095 -0.29746422 0.021525599 0.26630926 0.1675193 -0.25843582
-0.030477583 -0.01338972 -0.227537 0.23860773 -0.047907814 0.14365399 -0.33580455 0.34648114
-0.23371398 0.17892343 -0.17735514 0.17810443 0.122723214 0.06916662 -0.20024827 -0.055510297
0.18121502 0.2717066 -0.26100954 0.10697161 -0.19245341 0.30395165 -0.08525869 0.17912024
0.10630018 -0.27880964 0.09626936 -0.3930733 0.18049124 -0.25600827 0.39512548 0.09920061
-0.2020015 -0.09952068 0.0010057735 -0.057796944 0.23473392 0.3614712 -0.08295351 0.1088341
-0.11645785 -0.22888763 0.31478634 0.13184512 -0.09015977 -0.01679424 -0.33464545 -0.0077319182
0.23021105 -0.17860232 0.23691481 -0.2718257 -0.17257501 -0.018166056 0.20499343 0.066891864
0.087222524 -0.17538384 -0.39923194 0.12886168 0.21197812 0.24212456 0.2619075 0.09806243
0.36237907 -0.2508129 0.072650366 -0.34687135 0.13163844 -0.11992495 -0.27119634 -0.03806201
0.28080237 -0.14775091 -0.006450462 -0.2151632 -0.09281232 -0.2778864 0.11686964 0.25063685
-0.013468663 -0.004792253 -0.058743637 0.27255508 0.09562588 -0.001264726 -0.21899636 -0.1939984
-0.12942582 0.1093135 -0.01771602 0.033618644 -0.20234594 0.21598318 -0.05396925 -0.009101415
-0.23492879 0.116778515 0.12577808 -0.14292736 -0.035395823 -0.14599302 0.03130308 -0.26514593
-0.2526987 -0.23917833 0.2732074 0.31511268 0.3624856 0.08770003 -0.04791467 -0.14665765
0.17394117 -0.14291948 0.20814972 0.22378074 -0.06193882 -0.08512722 0.30190474 -0.16031282
-0.39394438 -0.18069229 -0.24856986 0.19803771 -0.2640233 0.042050738 0.19754705 0.25076848
0.29640996 -0.19124344 -0.2749105 0.012704658 0.18230186 -0.13350543 0.37582785 -0.16731025
-0.16299574 -0.19337334 0.4096749 -0.15025067 -0.2376295 -0.15306386 0.15670757 0.008757156
-0.098753706 0.20091753 0.20526169 0.061265457 -0.040716693 -0.1463924 -0.223766 0.038370803
-0.11431167 0.18296118 0.36121467 -0.08848052 0.15549137 -0.34526476 0.10986925 0.07642078
-0.33273056 0.054714095 -0.06991075 0.27745155 0.008009397 0.11884088 0.124115676 -0.009878492
-0.16010003 0.12704785 0.02323887 -0.38237324 0.19291593 0.116882555 -0.3790495 -0.19750415
-0.053205747 0.21824242 0.2065088 0.028879654 -0.13155435 -0.1643188 -0.014554435 -0.19459222
-0.10706615 0.14467938 0.03873366 0.047775935 0.19707978 -0.1037004 -0.1422921 0.27634215
0.1066795 -0.3223736 -0.03484813 0.29351726 -0.5147054 0.22801341 -0.19811024 0.23961794
0.2042412 0.28057513 0.26128042 -0.020742293 -0.035383843 -0.30084732 -0.23129562 0.24280351
